…
train/checkpoint-300/mm_projector.bin', mm_projector_type='mlp2x_gelu', mm_use_im_start_end=False, mm_use_im_patch_token=False, mm_vision_select_feature='patch')
[2023-11-09 02:36:10,403] [WARNING] [partition_parameters.py:836:_post_init_method] param `class_embedding` in CLIPVisionEmbeddings not on GPU so was not broadcasted from rank 0
[2023-11-09 02:36:10,688] [INFO] [partition_parameters.py:453:__exit__] finished initializing model with 7.04B parameters
PeftModelForCausalLM(
  (base_model): LoraModel(
    (model): LlavaLlamaForCausalLM(
      (model): LlavaLlamaModel(
        (embed_tokens): Embedding(32000, 4096, padding_idx=0)
        (layers): ModuleList(
          (0-31): 32 x LlamaDecoderLayer(
            (self_attn): LlamaAttention(
              (q_proj): Linear(
                in_features=4096, out_features=4096, bias=False
                (lora_dropout): ModuleDict(
                  (default): Dropout(p=0.05, inplace=False)
                )
                (lora_A): ModuleDict(
                  (default): Linear(in_features=4096, out_features=128, bias=False)
                )
                (lora_B): ModuleDict(
                  (default): Linear(in_features=128, out_features=4096, bias=False)
                )
                (lora_embedding_A): ParameterDict()
                (lora_embedding_B): ParameterDict()
              )
              (k_proj): Linear(
                in_features=4096, out_features=4096, bias=False
                (lora_dropout): ModuleDict(
                  (default): Dropout(p=0.05, inplace=False)
                )
                (lora_A): ModuleDict(
                  (default): Linear(in_features=4096, out_features=128, bias=False)
                )
                (lora_B): ModuleDict(
                  (default): Linear(in_features=128, out_features=4096, bias=False)
                )
                (lora_embedding_A): ParameterDict()
                (lora_embedding_B): ParameterDict()
              )
              (v_proj): Linear(
                in_features=4096, out_features=4096, bias=False
                (lora_dropout): ModuleDict(
                  (default): Dropout(p=0.05, inplace=False)
                )
                (lora_A): ModuleDict(
                  (default): Linear(in_features=4096, out_features=128, bias=False)
                )
                (lora_B): ModuleDict(
                  (default): Linear(in_features=128, out_features=4096, bias=False)
                )
                (lora_embedding_A): ParameterDict()
                (lora_embedding_B): ParameterDict()
              )
              (o_proj): Linear(
                in_features=4096, out_features=4096, bias=False
                (lora_dropout): ModuleDict(
                  (default): Dropout(p=0.05, inplace=False)
                )
                (lora_A): ModuleDict(
                  (default): Linear(in_features=4096, out_features=128, bias=False)
                )
                (lora_B): ModuleDict(
                  (default): Linear(in_features=128, out_features=4096, bias=False)
                )
                (lora_embedding_A): ParameterDict()
                (lora_embedding_B): ParameterDict()
              )
              (rotary_emb): LlamaRotaryEmbedding()
            )
            (mlp): LlamaMLP(
              (gate_proj): Linear(
                in_features=4096, out_features=11008, bias=False
                (lora_dropout): ModuleDict(
                  (default): Dropout(p=0.05, inplace=False)
                )
                (lora_A): ModuleDict(
                  (default): Linear(in_features=4096, out_features=128, bias=False)
                )
                (lora_B): ModuleDict(
                  (default): Linear(in_features=128, out_features=11008, bias=False)
                )
                (lora_embedding_A): ParameterDict()
                (lora_embedding_B): ParameterDict()
              )
              (up_proj): Linear(
                in_features=4096, out_features=11008, bias=False
                (lora_dropout): ModuleDict(
                  (default): Dropout(p=0.05, inplace=False)
                )
                (lora_A): ModuleDict(
                  (default): Linear(in_features=4096, out_features=128, bias=False)
                )
                (lora_B): ModuleDict(
                  (default): Linear(in_features=128, out_features=11008, bias=False)
                )
                (lora_embedding_A): ParameterDict()
                (lora_embedding_B): ParameterDict()
              )
              (down_proj): Linear(
                in_features=11008, out_features=4096, bias=False
                (lora_dropout): ModuleDict(
                  (default): Dropout(p=0.05, inplace=False)
                )
                (lora_A): ModuleDict(
                  (default): Linear(in_features=11008, out_features=128, bias=False)
                )
                (lora_B): ModuleDict(
                  (default): Linear(in_features=128, out_features=4096, bias=False)
                )
                (lora_embedding_A): ParameterDict()
                (lora_embedding_B): ParameterDict()
              )
              (act_fn): SiLUActivation()
            )
            (input_layernorm): LlamaRMSNorm()
            (post_attention_layernorm): LlamaRMSNorm()
          )
        )
        (norm): LlamaRMSNorm()
        (vision_tower): CLIPVisionTower(
          (vision_tower): CLIPVisionModel(
            (vision_model): CLIPVisionTransformer(
              (embeddings): CLIPVisionEmbeddings(
                (patch_embedding): Conv2d(3, 1024, kernel_size=(14, 14), stride=(14, 14), bias=False)
                (position_embedding): Embedding(577, 1024)
              )
              (pre_layrnorm): LayerNorm((1024,), eps=1e-05, elementwise_affine=True)
              (encoder): CLIPEncoder(
                (layers): ModuleList(
                  (0-23): 24 x CLIPEncoderLayer(
                    (self_attn): CLIPAttention(
                      (k_proj): Linear(in_features=1024, out_features=1024, bias=True)
                      (v_proj): Linear(in_features=1024, out_features=1024, bias=True)
                      (q_proj): Linear(in_features=1024, out_features=1024, bias=True)
                      (out_proj): Linear(in_features=1024, out_features=1024, bias=True)
                    )
                    (layer_norm1): LayerNorm((1024,), eps=1e-05, elementwise_affine=True)
                    (mlp): CLIPMLP(
                      (activation_fn): QuickGELUActivation()
                      (fc1): Linear(in_features=1024, out_features=4096, bias=True)
                      (fc2): Linear(in_features=4096, out_features=1024, bias=True)
                    )
                    (layer_norm2): LayerNorm((1024,), eps=1e-05, elementwise_affine=True)
                  )
                )
              )
              (post_layernorm): LayerNorm((1024,), eps=1e-05, elementwise_affine=True)
            )
          )
        )
        (mm_projector): Sequential(
          (0): Linear(in_features=1024, out_features=4096, bias=True)
          (1): GELU(approximate='none')
          (2): Linear(in_features=4096, out_features=4096, bias=True)
        )
      )
      (lm_head): Linear(in_features=4096, out_features=32000, bias=False)
    )
  )
)
base_model.model.model.embed_tokens.weight False
base_model.model.model.layers.0.self_attn.q_proj.weight False
base_model.model.model.layers.0.self_attn.q_proj.lora_A.default.weight True
base_model.model.model.layers.0.self_attn.q_proj.lora_B.default.weight True
base_model.model.model.layers.0.self_attn.k_proj.weight False
base_model.model.model.layers.0.self_attn.k_proj.lora_A.default.weight True
…
