…
ModelArguments(model_name_or_path='EleutherAI/pythia-410m', version='plain', freeze_backbone=False, tune_mm_mlp_adapter=True, vision_tower='openai/clip-vit-large-patch14-336', mm_vision_select_layer=-2, pretrain_mm_mlp_adapter=None, mm_projector_type='mlp2x_gelu', mm_use_im_start_end=False, mm_use_im_patch_token=False, mm_vision_select_feature='patch')
ModelArguments(model_name_or_path='EleutherAI/pythia-410m', version='plain', freeze_backbone=False, tune_mm_mlp_adapter=True, vision_tower='openai/clip-vit-large-patch14-336', mm_vision_select_layer=-2, pretrain_mm_mlp_adapter=None, mm_projector_type='mlp2x_gelu', mm_use_im_start_end=False, mm_use_im_patch_token=False, mm_vision_select_feature='patch')
Formatting inputs...Skip in lazy mode
LlavaGPTNeoXForCausalLM(
  (gpt_neox): LlavaGPTNeoXModel(
    (embed_in): Embedding(50304, 1024)
    (emb_dropout): Dropout(p=0.0, inplace=False)
    (layers): ModuleList(
      (0-23): 24 x GPTNeoXLayer(
        (input_layernorm): LayerNorm((1024,), eps=1e-05, elementwise_affine=True)
        (post_attention_layernorm): LayerNorm((1024,), eps=1e-05, elementwise_affine=True)
        (post_attention_dropout): Dropout(p=0.0, inplace=False)
        (post_mlp_dropout): Dropout(p=0.0, inplace=False)
        (attention): GPTNeoXAttention(
          (rotary_emb): GPTNeoXRotaryEmbedding()
          (query_key_value): Linear(in_features=1024, out_features=3072, bias=True)
          (dense): Linear(in_features=1024, out_features=1024, bias=True)
          (attention_dropout): Dropout(p=0.0, inplace=False)
        )
        (mlp): GPTNeoXMLP(
          (dense_h_to_4h): Linear(in_features=1024, out_features=4096, bias=True)
          (dense_4h_to_h): Linear(in_features=4096, out_features=1024, bias=True)
          (act): GELUActivation()
        )
      )
    )
    (final_layer_norm): LayerNorm((1024,), eps=1e-05, elementwise_affine=True)
    (vision_tower): CLIPVisionTower(
      (vision_tower): CLIPVisionModel(
        (vision_model): CLIPVisionTransformer(
          (embeddings): CLIPVisionEmbeddings(
            (patch_embedding): Conv2d(3, 1024, kernel_size=(14, 14), stride=(14, 14), bias=False)
            (position_embedding): Embedding(577, 1024)
          )
          (pre_layrnorm): LayerNorm((1024,), eps=1e-05, elementwise_affine=True)
          (encoder): CLIPEncoder(
            (layers): ModuleList(
              (0-23): 24 x CLIPEncoderLayer(
                (self_attn): CLIPAttention(
                  (k_proj): Linear(in_features=1024, out_features=1024, bias=True)
                  (v_proj): Linear(in_features=1024, out_features=1024, bias=True)
                  (q_proj): Linear(in_features=1024, out_features=1024, bias=True)
                  (out_proj): Linear(in_features=1024, out_features=1024, bias=True)
                )
                (layer_norm1): LayerNorm((1024,), eps=1e-05, elementwise_affine=True)
                (mlp): CLIPMLP(
                  (activation_fn): QuickGELUActivation()
                  (fc1): Linear(in_features=1024, out_features=4096, bias=True)
                  (fc2): Linear(in_features=4096, out_features=1024, bias=True)
                )
                (layer_norm2): LayerNorm((1024,), eps=1e-05, elementwise_affine=True)
              )
            )
          )
          (post_layernorm): LayerNorm((1024,), eps=1e-05, elementwise_affine=True)
        )
      )
    )
    (mm_projector): Sequential(
      (0): Linear(in_features=1024, out_features=1024, bias=True)
      (1): GELU(approximate='none')
      (2): Linear(in_features=1024, out_features=1024, bias=True)
    )
  )
  (embed_out): Linear(in_features=1024, out_features=50304, bias=False)
)
Rank: 1 partition count [2, 2] and sizes[(1048576, False), (1024, False)] 
Rank: 0 partition count [2, 2] and sizes[(1048576, False), (1024, False)] 
{'loss': 7.5859, 'learning_rate': 0.0, 'epoch': 0.0}
{'loss': 7.4512, 'learning_rate': 0.0, 'epoch': 0.0}
{'loss': 7.4219, 'learning_rate': 0.0, 'epoch': 0.0}
{'loss': 7.4668, 'learning_rate': 3.816793893129771e-06, 'epoch': 0.0}
…
